<?xml version="1.0" ?>
<net name="model" version="10">
	<layers>
		<layer id="0" name="0" type="Parameter" version="opset1">
			<data element_type="f16" shape="1,300,300,3"/>
			<output>
				<port id="0" precision="FP16">
					<dim>1</dim>
					<dim>300</dim>
					<dim>300</dim>
					<dim>3</dim>
				</port>
			</output>
		</layer>
		<layer id="1" name="Gather_180/Cast_12480_const" type="Const" version="opset1">
			<data element_type="i32" offset="0" shape="" size="4"/>
			<output>
				<port id="1" precision="I32"/>
			</output>
		</layer>
		<layer id="2" name="Gather_180/Cast_22482_const" type="Const" version="opset1">
			<data element_type="i64" offset="4" shape="" size="8"/>
			<output>
				<port id="1" precision="I64"/>
			</output>
		</layer>
		<layer id="3" name="Gather_180" type="Gather" version="opset1">
			<input>
				<port id="0">
					<dim>1</dim>
					<dim>300</dim>
					<dim>300</dim>
					<dim>3</dim>
				</port>
				<port id="1"/>
				<port id="2"/>
			</input>
			<output>
				<port id="3" precision="FP16">
					<dim>300</dim>
					<dim>300</dim>
					<dim>3</dim>
				</port>
			</output>
		</layer>
		<layer id="4" name="Gather_378/Cast_12492_const" type="Const" version="opset1">
			<data element_type="i32" offset="0" shape="" size="4"/>
			<output>
				<port id="1" precision="I32"/>
			</output>
		</layer>
		<layer id="5" name="Gather_378/Cast_22494_const" type="Const" version="opset1">
			<data element_type="i64" offset="12" shape="" size="8"/>
			<output>
				<port id="1" precision="I64"/>
			</output>
		</layer>
		<layer id="6" name="Gather_378" type="Gather" version="opset1">
			<input>
				<port id="0">
					<dim>300</dim>
					<dim>300</dim>
					<dim>3</dim>
				</port>
				<port id="1"/>
				<port id="2"/>
			</input>
			<output>
				<port id="3" precision="FP16">
					<dim>300</dim>
					<dim>300</dim>
				</port>
			</output>
		</layer>
		<layer id="7" name="Unsqueeze_13/Dims/Output_0/Data__const" type="Const" version="opset1">
			<data element_type="i64" offset="20" shape="1" size="8"/>
			<output>
				<port id="1" precision="I64">
					<dim>1</dim>
				</port>
			</output>
		</layer>
		<layer id="8" name="Unsqueeze_1345" type="Unsqueeze" version="opset1">
			<input>
				<port id="0">
					<dim>300</dim>
					<dim>300</dim>
				</port>
				<port id="1">
					<dim>1</dim>
				</port>
			</input>
			<output>
				<port id="2" precision="FP16">
					<dim>1</dim>
					<dim>300</dim>
					<dim>300</dim>
				</port>
			</output>
		</layer>
		<layer id="9" name="Unsqueeze_14/Dims/Output_0/Data__const" type="Const" version="opset1">
			<data element_type="i64" offset="20" shape="1" size="8"/>
			<output>
				<port id="1" precision="I64">
					<dim>1</dim>
				</port>
			</output>
		</layer>
		<layer id="10" name="Unsqueeze_1447" type="Unsqueeze" version="opset1">
			<input>
				<port id="0">
					<dim>1</dim>
					<dim>300</dim>
					<dim>300</dim>
				</port>
				<port id="1">
					<dim>1</dim>
				</port>
			</input>
			<output>
				<port id="2" precision="FP16">
					<dim>1</dim>
					<dim>1</dim>
					<dim>300</dim>
					<dim>300</dim>
				</port>
			</output>
		</layer>
		<layer id="11" name="Copy_onnx_initializer_node_blur.weight/Output_0/Data__const" type="Const" version="opset1">
			<data element_type="f16" offset="28" shape="1,1,5,5" size="50"/>
			<output>
				<port id="1" precision="FP16">
					<dim>1</dim>
					<dim>1</dim>
					<dim>5</dim>
					<dim>5</dim>
				</port>
			</output>
		</layer>
		<layer id="12" name="Conv_21" type="Convolution" version="opset1">
			<data dilations="1,1" output_padding="0,0" pads_begin="2,2" pads_end="2,2" strides="1,1"/>
			<input>
				<port id="0">
					<dim>1</dim>
					<dim>1</dim>
					<dim>300</dim>
					<dim>300</dim>
				</port>
				<port id="1">
					<dim>1</dim>
					<dim>1</dim>
					<dim>5</dim>
					<dim>5</dim>
				</port>
			</input>
			<output>
				<port id="2" precision="FP16">
					<dim>1</dim>
					<dim>1</dim>
					<dim>300</dim>
					<dim>300</dim>
				</port>
			</output>
		</layer>
		<layer id="13" name="Gather_2374/Cast_12472_const" type="Const" version="opset1">
			<data element_type="i32" offset="0" shape="" size="4"/>
			<output>
				<port id="1" precision="I32"/>
			</output>
		</layer>
		<layer id="14" name="Gather_2374/Cast_22474_const" type="Const" version="opset1">
			<data element_type="i64" offset="78" shape="" size="8"/>
			<output>
				<port id="1" precision="I64"/>
			</output>
		</layer>
		<layer id="15" name="Gather_2374" type="Gather" version="opset1">
			<input>
				<port id="0">
					<dim>1</dim>
					<dim>1</dim>
					<dim>300</dim>
					<dim>300</dim>
				</port>
				<port id="1"/>
				<port id="2"/>
			</input>
			<output>
				<port id="3" precision="FP16">
					<dim>1</dim>
					<dim>300</dim>
					<dim>300</dim>
				</port>
			</output>
		</layer>
		<layer id="16" name="Gather_2576/Cast_12448_const" type="Const" version="opset1">
			<data element_type="i32" offset="0" shape="" size="4"/>
			<output>
				<port id="1" precision="I32"/>
			</output>
		</layer>
		<layer id="17" name="Gather_2576/Cast_22450_const" type="Const" version="opset1">
			<data element_type="i64" offset="78" shape="" size="8"/>
			<output>
				<port id="1" precision="I64"/>
			</output>
		</layer>
		<layer id="18" name="Gather_2576" type="Gather" version="opset1">
			<input>
				<port id="0">
					<dim>1</dim>
					<dim>300</dim>
					<dim>300</dim>
				</port>
				<port id="1"/>
				<port id="2"/>
			</input>
			<output>
				<port id="3" precision="FP16">
					<dim>300</dim>
					<dim>300</dim>
				</port>
			</output>
		</layer>
		<layer id="19" name="Unsqueeze_36/Dims/Output_0/Data__const" type="Const" version="opset1">
			<data element_type="i64" offset="86" shape="1" size="8"/>
			<output>
				<port id="1" precision="I64">
					<dim>1</dim>
				</port>
			</output>
		</layer>
		<layer id="20" name="Unsqueeze_3657" type="Unsqueeze" version="opset1">
			<input>
				<port id="0">
					<dim>300</dim>
					<dim>300</dim>
				</port>
				<port id="1">
					<dim>1</dim>
				</port>
			</input>
			<output>
				<port id="2" precision="FP16">
					<dim>300</dim>
					<dim>300</dim>
					<dim>1</dim>
				</port>
			</output>
		</layer>
		<layer id="21" name="Gather_568/Cast_12460_const" type="Const" version="opset1">
			<data element_type="i32" offset="0" shape="" size="4"/>
			<output>
				<port id="1" precision="I32"/>
			</output>
		</layer>
		<layer id="22" name="Gather_568/Cast_22462_const" type="Const" version="opset1">
			<data element_type="i64" offset="78" shape="" size="8"/>
			<output>
				<port id="1" precision="I64"/>
			</output>
		</layer>
		<layer id="23" name="Gather_568" type="Gather" version="opset1">
			<input>
				<port id="0">
					<dim>1</dim>
					<dim>300</dim>
					<dim>300</dim>
					<dim>3</dim>
				</port>
				<port id="1"/>
				<port id="2"/>
			</input>
			<output>
				<port id="3" precision="FP16">
					<dim>300</dim>
					<dim>300</dim>
					<dim>3</dim>
				</port>
			</output>
		</layer>
		<layer id="24" name="Gather_782/Cast_12488_const" type="Const" version="opset1">
			<data element_type="i32" offset="94" shape="" size="4"/>
			<output>
				<port id="1" precision="I32"/>
			</output>
		</layer>
		<layer id="25" name="Gather_782/Cast_22490_const" type="Const" version="opset1">
			<data element_type="i64" offset="98" shape="" size="8"/>
			<output>
				<port id="1" precision="I64"/>
			</output>
		</layer>
		<layer id="26" name="Gather_782" type="Gather" version="opset1">
			<input>
				<port id="0">
					<dim>300</dim>
					<dim>300</dim>
					<dim>3</dim>
				</port>
				<port id="1"/>
				<port id="2"/>
			</input>
			<output>
				<port id="3" precision="FP16">
					<dim>300</dim>
					<dim>300</dim>
				</port>
			</output>
		</layer>
		<layer id="27" name="Unsqueeze_16/Dims/Output_0/Data__const" type="Const" version="opset1">
			<data element_type="i64" offset="106" shape="1" size="8"/>
			<output>
				<port id="1" precision="I64">
					<dim>1</dim>
				</port>
			</output>
		</layer>
		<layer id="28" name="Unsqueeze_1649" type="Unsqueeze" version="opset1">
			<input>
				<port id="0">
					<dim>300</dim>
					<dim>300</dim>
				</port>
				<port id="1">
					<dim>1</dim>
				</port>
			</input>
			<output>
				<port id="2" precision="FP16">
					<dim>1</dim>
					<dim>300</dim>
					<dim>300</dim>
				</port>
			</output>
		</layer>
		<layer id="29" name="Unsqueeze_17/Dims/Output_0/Data__const" type="Const" version="opset1">
			<data element_type="i64" offset="106" shape="1" size="8"/>
			<output>
				<port id="1" precision="I64">
					<dim>1</dim>
				</port>
			</output>
		</layer>
		<layer id="30" name="Unsqueeze_1751" type="Unsqueeze" version="opset1">
			<input>
				<port id="0">
					<dim>1</dim>
					<dim>300</dim>
					<dim>300</dim>
				</port>
				<port id="1">
					<dim>1</dim>
				</port>
			</input>
			<output>
				<port id="2" precision="FP16">
					<dim>1</dim>
					<dim>1</dim>
					<dim>300</dim>
					<dim>300</dim>
				</port>
			</output>
		</layer>
		<layer id="31" name="Copy_onnx_initializer_node_blur.weight/Output_0/Data_225_const" type="Const" version="opset1">
			<data element_type="f16" offset="28" shape="1,1,5,5" size="50"/>
			<output>
				<port id="1" precision="FP16">
					<dim>1</dim>
					<dim>1</dim>
					<dim>5</dim>
					<dim>5</dim>
				</port>
			</output>
		</layer>
		<layer id="32" name="Conv_26" type="Convolution" version="opset1">
			<data dilations="1,1" output_padding="0,0" pads_begin="2,2" pads_end="2,2" strides="1,1"/>
			<input>
				<port id="0">
					<dim>1</dim>
					<dim>1</dim>
					<dim>300</dim>
					<dim>300</dim>
				</port>
				<port id="1">
					<dim>1</dim>
					<dim>1</dim>
					<dim>5</dim>
					<dim>5</dim>
				</port>
			</input>
			<output>
				<port id="2" precision="FP16">
					<dim>1</dim>
					<dim>1</dim>
					<dim>300</dim>
					<dim>300</dim>
				</port>
			</output>
		</layer>
		<layer id="33" name="Gather_2884/Cast_12456_const" type="Const" version="opset1">
			<data element_type="i32" offset="0" shape="" size="4"/>
			<output>
				<port id="1" precision="I32"/>
			</output>
		</layer>
		<layer id="34" name="Gather_2884/Cast_22458_const" type="Const" version="opset1">
			<data element_type="i64" offset="114" shape="" size="8"/>
			<output>
				<port id="1" precision="I64"/>
			</output>
		</layer>
		<layer id="35" name="Gather_2884" type="Gather" version="opset1">
			<input>
				<port id="0">
					<dim>1</dim>
					<dim>1</dim>
					<dim>300</dim>
					<dim>300</dim>
				</port>
				<port id="1"/>
				<port id="2"/>
			</input>
			<output>
				<port id="3" precision="FP16">
					<dim>1</dim>
					<dim>300</dim>
					<dim>300</dim>
				</port>
			</output>
		</layer>
		<layer id="36" name="Gather_3086/Cast_12464_const" type="Const" version="opset1">
			<data element_type="i32" offset="0" shape="" size="4"/>
			<output>
				<port id="1" precision="I32"/>
			</output>
		</layer>
		<layer id="37" name="Gather_3086/Cast_22466_const" type="Const" version="opset1">
			<data element_type="i64" offset="114" shape="" size="8"/>
			<output>
				<port id="1" precision="I64"/>
			</output>
		</layer>
		<layer id="38" name="Gather_3086" type="Gather" version="opset1">
			<input>
				<port id="0">
					<dim>1</dim>
					<dim>300</dim>
					<dim>300</dim>
				</port>
				<port id="1"/>
				<port id="2"/>
			</input>
			<output>
				<port id="3" precision="FP16">
					<dim>300</dim>
					<dim>300</dim>
				</port>
			</output>
		</layer>
		<layer id="39" name="Unsqueeze_37/Dims/Output_0/Data__const" type="Const" version="opset1">
			<data element_type="i64" offset="122" shape="1" size="8"/>
			<output>
				<port id="1" precision="I64">
					<dim>1</dim>
				</port>
			</output>
		</layer>
		<layer id="40" name="Unsqueeze_3759" type="Unsqueeze" version="opset1">
			<input>
				<port id="0">
					<dim>300</dim>
					<dim>300</dim>
				</port>
				<port id="1">
					<dim>1</dim>
				</port>
			</input>
			<output>
				<port id="2" precision="FP16">
					<dim>300</dim>
					<dim>300</dim>
					<dim>1</dim>
				</port>
			</output>
		</layer>
		<layer id="41" name="Gather_972/Cast_12484_const" type="Const" version="opset1">
			<data element_type="i32" offset="0" shape="" size="4"/>
			<output>
				<port id="1" precision="I32"/>
			</output>
		</layer>
		<layer id="42" name="Gather_972/Cast_22486_const" type="Const" version="opset1">
			<data element_type="i64" offset="114" shape="" size="8"/>
			<output>
				<port id="1" precision="I64"/>
			</output>
		</layer>
		<layer id="43" name="Gather_972" type="Gather" version="opset1">
			<input>
				<port id="0">
					<dim>1</dim>
					<dim>300</dim>
					<dim>300</dim>
					<dim>3</dim>
				</port>
				<port id="1"/>
				<port id="2"/>
			</input>
			<output>
				<port id="3" precision="FP16">
					<dim>300</dim>
					<dim>300</dim>
					<dim>3</dim>
				</port>
			</output>
		</layer>
		<layer id="44" name="Gather_1170/Cast_12468_const" type="Const" version="opset1">
			<data element_type="i32" offset="130" shape="" size="4"/>
			<output>
				<port id="1" precision="I32"/>
			</output>
		</layer>
		<layer id="45" name="Gather_1170/Cast_22470_const" type="Const" version="opset1">
			<data element_type="i64" offset="134" shape="" size="8"/>
			<output>
				<port id="1" precision="I64"/>
			</output>
		</layer>
		<layer id="46" name="Gather_1170" type="Gather" version="opset1">
			<input>
				<port id="0">
					<dim>300</dim>
					<dim>300</dim>
					<dim>3</dim>
				</port>
				<port id="1"/>
				<port id="2"/>
			</input>
			<output>
				<port id="3" precision="FP16">
					<dim>300</dim>
					<dim>300</dim>
				</port>
			</output>
		</layer>
		<layer id="47" name="Unsqueeze_19/Dims/Output_0/Data__const" type="Const" version="opset1">
			<data element_type="i64" offset="142" shape="1" size="8"/>
			<output>
				<port id="1" precision="I64">
					<dim>1</dim>
				</port>
			</output>
		</layer>
		<layer id="48" name="Unsqueeze_1953" type="Unsqueeze" version="opset1">
			<input>
				<port id="0">
					<dim>300</dim>
					<dim>300</dim>
				</port>
				<port id="1">
					<dim>1</dim>
				</port>
			</input>
			<output>
				<port id="2" precision="FP16">
					<dim>1</dim>
					<dim>300</dim>
					<dim>300</dim>
				</port>
			</output>
		</layer>
		<layer id="49" name="Unsqueeze_20/Dims/Output_0/Data__const" type="Const" version="opset1">
			<data element_type="i64" offset="142" shape="1" size="8"/>
			<output>
				<port id="1" precision="I64">
					<dim>1</dim>
				</port>
			</output>
		</layer>
		<layer id="50" name="Unsqueeze_2055" type="Unsqueeze" version="opset1">
			<input>
				<port id="0">
					<dim>1</dim>
					<dim>300</dim>
					<dim>300</dim>
				</port>
				<port id="1">
					<dim>1</dim>
				</port>
			</input>
			<output>
				<port id="2" precision="FP16">
					<dim>1</dim>
					<dim>1</dim>
					<dim>300</dim>
					<dim>300</dim>
				</port>
			</output>
		</layer>
		<layer id="51" name="Copy_onnx_initializer_node_blur.weight/Output_0/Data_226_const" type="Const" version="opset1">
			<data element_type="f16" offset="28" shape="1,1,5,5" size="50"/>
			<output>
				<port id="1" precision="FP16">
					<dim>1</dim>
					<dim>1</dim>
					<dim>5</dim>
					<dim>5</dim>
				</port>
			</output>
		</layer>
		<layer id="52" name="Conv_31" type="Convolution" version="opset1">
			<data dilations="1,1" output_padding="0,0" pads_begin="2,2" pads_end="2,2" strides="1,1"/>
			<input>
				<port id="0">
					<dim>1</dim>
					<dim>1</dim>
					<dim>300</dim>
					<dim>300</dim>
				</port>
				<port id="1">
					<dim>1</dim>
					<dim>1</dim>
					<dim>5</dim>
					<dim>5</dim>
				</port>
			</input>
			<output>
				<port id="2" precision="FP16">
					<dim>1</dim>
					<dim>1</dim>
					<dim>300</dim>
					<dim>300</dim>
				</port>
			</output>
		</layer>
		<layer id="53" name="Gather_3388/Cast_12476_const" type="Const" version="opset1">
			<data element_type="i32" offset="0" shape="" size="4"/>
			<output>
				<port id="1" precision="I32"/>
			</output>
		</layer>
		<layer id="54" name="Gather_3388/Cast_22478_const" type="Const" version="opset1">
			<data element_type="i64" offset="150" shape="" size="8"/>
			<output>
				<port id="1" precision="I64"/>
			</output>
		</layer>
		<layer id="55" name="Gather_3388" type="Gather" version="opset1">
			<input>
				<port id="0">
					<dim>1</dim>
					<dim>1</dim>
					<dim>300</dim>
					<dim>300</dim>
				</port>
				<port id="1"/>
				<port id="2"/>
			</input>
			<output>
				<port id="3" precision="FP16">
					<dim>1</dim>
					<dim>300</dim>
					<dim>300</dim>
				</port>
			</output>
		</layer>
		<layer id="56" name="Gather_3566/Cast_12452_const" type="Const" version="opset1">
			<data element_type="i32" offset="0" shape="" size="4"/>
			<output>
				<port id="1" precision="I32"/>
			</output>
		</layer>
		<layer id="57" name="Gather_3566/Cast_22454_const" type="Const" version="opset1">
			<data element_type="i64" offset="150" shape="" size="8"/>
			<output>
				<port id="1" precision="I64"/>
			</output>
		</layer>
		<layer id="58" name="Gather_3566" type="Gather" version="opset1">
			<input>
				<port id="0">
					<dim>1</dim>
					<dim>300</dim>
					<dim>300</dim>
				</port>
				<port id="1"/>
				<port id="2"/>
			</input>
			<output>
				<port id="3" precision="FP16">
					<dim>300</dim>
					<dim>300</dim>
				</port>
			</output>
		</layer>
		<layer id="59" name="Unsqueeze_38/Dims/Output_0/Data__const" type="Const" version="opset1">
			<data element_type="i64" offset="158" shape="1" size="8"/>
			<output>
				<port id="1" precision="I64">
					<dim>1</dim>
				</port>
			</output>
		</layer>
		<layer id="60" name="Unsqueeze_3861" type="Unsqueeze" version="opset1">
			<input>
				<port id="0">
					<dim>300</dim>
					<dim>300</dim>
				</port>
				<port id="1">
					<dim>1</dim>
				</port>
			</input>
			<output>
				<port id="2" precision="FP16">
					<dim>300</dim>
					<dim>300</dim>
					<dim>1</dim>
				</port>
			</output>
		</layer>
		<layer id="61" name="Concat_39" type="Concat" version="opset1">
			<data axis="2"/>
			<input>
				<port id="0">
					<dim>300</dim>
					<dim>300</dim>
					<dim>1</dim>
				</port>
				<port id="1">
					<dim>300</dim>
					<dim>300</dim>
					<dim>1</dim>
				</port>
				<port id="2">
					<dim>300</dim>
					<dim>300</dim>
					<dim>1</dim>
				</port>
			</input>
			<output>
				<port id="3" precision="FP16">
					<dim>300</dim>
					<dim>300</dim>
					<dim>3</dim>
				</port>
			</output>
		</layer>
		<layer id="62" name="Unsqueeze_40/Dims/Output_0/Data__const" type="Const" version="opset1">
			<data element_type="i64" offset="166" shape="1" size="8"/>
			<output>
				<port id="1" precision="I64">
					<dim>1</dim>
				</port>
			</output>
		</layer>
		<layer id="63" name="Unsqueeze_4063" type="Unsqueeze" version="opset1">
			<input>
				<port id="0">
					<dim>300</dim>
					<dim>300</dim>
					<dim>3</dim>
				</port>
				<port id="1">
					<dim>1</dim>
				</port>
			</input>
			<output>
				<port id="2" precision="FP16">
					<dim>1</dim>
					<dim>300</dim>
					<dim>300</dim>
					<dim>3</dim>
				</port>
			</output>
		</layer>
		<layer id="64" name="Unsqueeze_40/sink_port_0" type="Result" version="opset1">
			<input>
				<port id="0">
					<dim>1</dim>
					<dim>300</dim>
					<dim>300</dim>
					<dim>3</dim>
				</port>
			</input>
		</layer>
	</layers>
	<edges>
		<edge from-layer="0" from-port="0" to-layer="3" to-port="0"/>
		<edge from-layer="1" from-port="1" to-layer="3" to-port="1"/>
		<edge from-layer="2" from-port="1" to-layer="3" to-port="2"/>
		<edge from-layer="3" from-port="3" to-layer="6" to-port="0"/>
		<edge from-layer="4" from-port="1" to-layer="6" to-port="1"/>
		<edge from-layer="5" from-port="1" to-layer="6" to-port="2"/>
		<edge from-layer="6" from-port="3" to-layer="8" to-port="0"/>
		<edge from-layer="7" from-port="1" to-layer="8" to-port="1"/>
		<edge from-layer="8" from-port="2" to-layer="10" to-port="0"/>
		<edge from-layer="9" from-port="1" to-layer="10" to-port="1"/>
		<edge from-layer="10" from-port="2" to-layer="12" to-port="0"/>
		<edge from-layer="11" from-port="1" to-layer="12" to-port="1"/>
		<edge from-layer="12" from-port="2" to-layer="15" to-port="0"/>
		<edge from-layer="13" from-port="1" to-layer="15" to-port="1"/>
		<edge from-layer="14" from-port="1" to-layer="15" to-port="2"/>
		<edge from-layer="15" from-port="3" to-layer="18" to-port="0"/>
		<edge from-layer="16" from-port="1" to-layer="18" to-port="1"/>
		<edge from-layer="17" from-port="1" to-layer="18" to-port="2"/>
		<edge from-layer="18" from-port="3" to-layer="20" to-port="0"/>
		<edge from-layer="19" from-port="1" to-layer="20" to-port="1"/>
		<edge from-layer="0" from-port="0" to-layer="23" to-port="0"/>
		<edge from-layer="21" from-port="1" to-layer="23" to-port="1"/>
		<edge from-layer="22" from-port="1" to-layer="23" to-port="2"/>
		<edge from-layer="23" from-port="3" to-layer="26" to-port="0"/>
		<edge from-layer="24" from-port="1" to-layer="26" to-port="1"/>
		<edge from-layer="25" from-port="1" to-layer="26" to-port="2"/>
		<edge from-layer="26" from-port="3" to-layer="28" to-port="0"/>
		<edge from-layer="27" from-port="1" to-layer="28" to-port="1"/>
		<edge from-layer="28" from-port="2" to-layer="30" to-port="0"/>
		<edge from-layer="29" from-port="1" to-layer="30" to-port="1"/>
		<edge from-layer="30" from-port="2" to-layer="32" to-port="0"/>
		<edge from-layer="31" from-port="1" to-layer="32" to-port="1"/>
		<edge from-layer="32" from-port="2" to-layer="35" to-port="0"/>
		<edge from-layer="33" from-port="1" to-layer="35" to-port="1"/>
		<edge from-layer="34" from-port="1" to-layer="35" to-port="2"/>
		<edge from-layer="35" from-port="3" to-layer="38" to-port="0"/>
		<edge from-layer="36" from-port="1" to-layer="38" to-port="1"/>
		<edge from-layer="37" from-port="1" to-layer="38" to-port="2"/>
		<edge from-layer="38" from-port="3" to-layer="40" to-port="0"/>
		<edge from-layer="39" from-port="1" to-layer="40" to-port="1"/>
		<edge from-layer="0" from-port="0" to-layer="43" to-port="0"/>
		<edge from-layer="41" from-port="1" to-layer="43" to-port="1"/>
		<edge from-layer="42" from-port="1" to-layer="43" to-port="2"/>
		<edge from-layer="43" from-port="3" to-layer="46" to-port="0"/>
		<edge from-layer="44" from-port="1" to-layer="46" to-port="1"/>
		<edge from-layer="45" from-port="1" to-layer="46" to-port="2"/>
		<edge from-layer="46" from-port="3" to-layer="48" to-port="0"/>
		<edge from-layer="47" from-port="1" to-layer="48" to-port="1"/>
		<edge from-layer="48" from-port="2" to-layer="50" to-port="0"/>
		<edge from-layer="49" from-port="1" to-layer="50" to-port="1"/>
		<edge from-layer="50" from-port="2" to-layer="52" to-port="0"/>
		<edge from-layer="51" from-port="1" to-layer="52" to-port="1"/>
		<edge from-layer="52" from-port="2" to-layer="55" to-port="0"/>
		<edge from-layer="53" from-port="1" to-layer="55" to-port="1"/>
		<edge from-layer="54" from-port="1" to-layer="55" to-port="2"/>
		<edge from-layer="55" from-port="3" to-layer="58" to-port="0"/>
		<edge from-layer="56" from-port="1" to-layer="58" to-port="1"/>
		<edge from-layer="57" from-port="1" to-layer="58" to-port="2"/>
		<edge from-layer="58" from-port="3" to-layer="60" to-port="0"/>
		<edge from-layer="59" from-port="1" to-layer="60" to-port="1"/>
		<edge from-layer="20" from-port="2" to-layer="61" to-port="0"/>
		<edge from-layer="40" from-port="2" to-layer="61" to-port="1"/>
		<edge from-layer="60" from-port="2" to-layer="61" to-port="2"/>
		<edge from-layer="61" from-port="3" to-layer="63" to-port="0"/>
		<edge from-layer="62" from-port="1" to-layer="63" to-port="1"/>
		<edge from-layer="63" from-port="2" to-layer="64" to-port="0"/>
	</edges>
	<meta_data>
		<MO_version value="2020.1.0-61-gd349c3ba4a"/>
		<cli_parameters>
			<batch value="1"/>
			<blobs_as_inputs value="True"/>
			<data_type value="half"/>
			<disable_resnet_optimization value="False"/>
			<enable_concat_optimization value="False"/>
			<extensions value="DIR"/>
			<framework value="onnx"/>
			<freeze_placeholder_with_value value="{}"/>
			<generate_deprecated_IR_V2 value="False"/>
			<generate_deprecated_IR_V7 value="False"/>
			<generate_experimental_IR_V10 value="True"/>
			<input_model value="DIR/model.onnx"/>
			<keep_quantize_ops_in_IR value="True"/>
			<keep_shape_ops value="False"/>
			<log_level value="ERROR"/>
			<mean_scale_values value="{}"/>
			<mean_values value="()"/>
			<model_name value="model"/>
			<move_to_preprocess value="False"/>
			<output_dir value="DIR"/>
			<placeholder_data_types value="{}"/>
			<progress value="False"/>
			<reverse_input_channels value="False"/>
			<scale_values value="()"/>
			<silent value="False"/>
			<stream_output value="False"/>
			<unset unset_cli_parameters="disable_fusing, disable_gfusing, finegrain_fusing, input, input_shape, output, placeholder_shapes, scale, transformations_config"/>
		</cli_parameters>
	</meta_data>
</net>
